…
 # Final layer X = Flatten()(X) X = Dropout(0.4)(X) X = Dense(6, activation = &#39;softmax&#39;, name = &#39;Dense_final&#39;, kernel_initializer= glorot_uniform(seed=0))(X) # Build model. model = Model( inputs= X_input, outputs = X, name = &#39;Resnet18&#39; ) # Check out model summary. model.summary() . Model: &#34;Resnet18&#34; __________________________________________________________________________________________________ Layer (type) Output Shape Param # Connected to ================================================================================================== input_1 (InputLayer) [(None, 256, 256, 3) 0 __________________________________________________________________________________________________ zero_padding2d (ZeroPadding2D) (None, 262, 262, 3) 0 input_1[0][0] __________________________________________________________________________________________________ conv1 (Conv2D) (None, 128, 128, 64) 9472 zero_padding2d[0][0] __________________________________________________________________________________________________ bn_conv1 (BatchNormalization) (None, 128, 128, 64) 256 conv1[0][0] __________________________________________________________________________________________________ activation (Activation) (None, 128, 128, 64) 0 bn_conv1[0][0] __________________________________________________________________________________________________ max_pooling2d (MaxPooling2D) (None, 63, 63, 64) 0 activation[0][0] __________________________________________________________________________________________________ res_2_conv_a (Conv2D) (None, 63, 63, 64) 4160 max_pooling2d[0][0] __________________________________________________________________________________________________ max_pooling2d_1 (MaxPooling2D) (None, 31, 31, 64) 0 res_2_conv_a[0][0] __________________________________________________________________________________________________ bn_2_conv_a (BatchNormalization (None, 31, 31, 64) 256 max_pooling2d_1[0][0] __________________________________________________________________________________________________ activation_1 (Activation) (None, 31, 31, 64) 0 bn_2_conv_a[0][0] __________________________________________________________________________________________________ res_2_conv_b (Conv2D) (None, 31, 31, 64) 36928 activation_1[0][0] __________________________________________________________________________________________________ bn_2_conv_b (BatchNormalization (None, 31, 31, 64) 256 res_2_conv_b[0][0] __________________________________________________________________________________________________ activation_2 (Activation) (None, 31, 31, 64) 0 bn_2_conv_b[0][0] __________________________________________________________________________________________________ res_2_conv_copy (Conv2D) (None, 63, 63, 256) 16640 max_pooling2d[0][0] __________________________________________________________________________________________________ res_2_conv_c (Conv2D) (None, 31, 31, 256) 16640 activation_2[0][0] __________________________________________________________________________________________________ max_pooling2d_2 (MaxPooling2D) (None, 31, 31, 256) 0 res_2_conv_copy[0][0] __________________________________________________________________________________________________ bn_2_conv_c (BatchNormalization (None, 31, 31, 256) 1024 res_2_conv_c[0][0] __________________________________________________________________________________________________ bn_2_conv_copy (BatchNormalizat (None, 31, 31, 256) 1024 max_pooling2d_2[0][0] __________________________________________________________________________________________________ add (Add) (None, 31, 31, 256) 0 bn_2_conv_c[0][0] bn_2_conv_copy[0][0] __________________________________________________________________________________________________ activation_3 (Activation) (None, 31, 31, 256) 0 add[0][0] __________________________________________________________________________________________________ res_2_identity_1_a (Conv2D) (None, 31, 31, 64) 16448 activation_3[0][0] __________________________________________________________________________________________________ bn_2_identity_1_a (BatchNormali (None, 31, 31, 64) 256 res_2_identity_1_a[0][0] __________________________________________________________________________________________________ activation_4 (Activation) (None, 31, 31, 64) 0 bn_2_identity_1_a[0][0] __________________________________________________________________________________________________ res_2_identity_1_b (Conv2D) (None, 31, 31, 64) 36928 activation_4[0][0] __________________________________________________________________________________________________ bn_2_identity_1_b (BatchNormali (None, 31, 31, 64) 256 res_2_identity_1_b[0][0] __________________________________________________________________________________________________ activation_5 (Activation) (None, 31, 31, 64) 0 bn_2_identity_1_b[0][0] __________________________________________________________________________________________________ res_2_identity_1_c (Conv2D) (None, 31, 31, 256) 16640 activation_5[0][0] __________________________________________________________________________________________________ bn_2_identity_1_c (BatchNormali (None, 31, 31, 256) 1024 res_2_identity_1_c[0][0] __________________________________________________________________________________________________ add_1 (Add) (None, 31, 31, 256) 0 bn_2_identity_1_c[0][0] activation_3[0][0] __________________________________________________________________________________________________ activation_6 (Activation) (None, 31, 31, 256) 0 add_1[0][0] __________________________________________________________________________________________________ res_2_identity_2_a (Conv2D) (None, 31, 31, 64) 16448 activation_6[0][0] __________________________________________________________________________________________________ bn_2_identity_2_a (BatchNormali (None, 31, 31, 64) 256 res_2_identity_2_a[0][0] __________________________________________________________________________________________________ activation_7 (Activation) (None, 31, 31, 64) 0 bn_2_identity_2_a[0][0] __________________________________________________________________________________________________ res_2_identity_2_b (Conv2D) (None, 31, 31, 64) 36928 activation_7[0][0] __________________________________________________________________________________________________ bn_2_identity_2_b (BatchNormali (None, 31, 31, 64) 256 res_2_identity_2_b[0][0] __________________________________________________________________________________________________ activation_8 (Activation) (None, 31, 31, 64) 0 bn_2_identity_2_b[0][0] __________________________________________________________________________________________________ res_2_identity_2_c (Conv2D) (None, 31, 31, 256) 16640 activation_8[0][0] __________________________________________________________________________________________________ bn_2_identity_2_c (BatchNormali (None, 31, 31, 256) 1024 res_2_identity_2_c[0][0] __________________________________________________________________________________________________ add_2 (Add) (None, 31, 31, 256) 0 bn_2_identity_2_c[0][0] activation_6[0][0] __________________________________________________________________________________________________ activation_9 (Activation) (None, 31, 31, 256) 0 add_2[0][0] __________________________________________________________________________________________________ res_3_conv_a (Conv2D) (None, 31, 31, 128) 32896 activation_9[0][0] __________________________________________________________________________________________________ max_pooling2d_3 (MaxPooling2D) (None, 15, 15, 128) 0 res_3_conv_a[0][0] __________________________________________________________________________________________________ bn_3_conv_a (BatchNormalization (None, 15, 15, 128) 512 max_pooling2d_3[0][0] __________________________________________________________________________________________________ activation_10 (Activation) (None, 15, 15, 128) 0 bn_3_conv_a[0][0] __________________________________________________________________________________________________ res_3_conv_b (Conv2D) (None, 15, 15, 128) 147584 activation_10[0][0] __________________________________________________________________________________________________ bn_3_conv_b (BatchNormalization (None, 15, 15, 128) 512 res_3_conv_b[0][0] __________________________________________________________________________________________________ activation_11 (Activation) (None, 15, 15, 128) 0 bn_3_conv_b[0][0] __________________________________________________________________________________________________ res_3_conv_copy (Conv2D) (None, 31, 31, 512) 131584 activation_9[0][0] __________________________________________________________________________________________________ res_3_conv_c (Conv2D) (None, 15, 15, 512) 66048 activation_11[0][0] __________________________________________________________________________________________________ max_pooling2d_4 (MaxPooling2D) (None, 15, 15, 512) 0 res_3_conv_copy[0][0] __________________________________________________________________________________________________ bn_3_conv_c (BatchNormalization (None, 15, 15, 512) 2048 res_3_conv_c[0][0] __________________________________________________________________________________________________ bn_3_conv_copy (BatchNormalizat (None, 15, 15, 512) 2048 max_pooling2d_4[0][0] __________________________________________________________________________________________________ add_3 (Add) (None, 15, 15, 512) 0 bn_3_conv_c[0][0] bn_3_conv_copy[0][0] __________________________________________________________________________________________________ activation_12 (Activation) (None, 15, 15, 512) 0 add_3[0][0] __________________________________________________________________________________________________ res_3_identity_1_a (Conv2D) (None, 15, 15, 128) 65664 activation_12[0][0] __________________________________________________________________________________________________ bn_3_identity_1_a (BatchNormali (None, 15, 15, 128) 512 res_3_identity_1_a[0][0] __________________________________________________________________________________________________ activation_13 (Activation) (None, 15, 15, 128) 0 bn_3_identity_1_a[0][0] __________________________________________________________________________________________________ res_3_identity_1_b (Conv2D) (None, 15, 15, 128) 147584 activation_13[0][0] __________________________________________________________________________________________________ bn_3_identity_1_b (BatchNormali (None, 15, 15, 128) 512 res_3_identity_1_b[0][0] __________________________________________________________________________________________________ activation_14 (Activation) (None, 15, 15, 128) 0 bn_3_identity_1_b[0][0] __________________________________________________________________________________________________ res_3_identity_1_c (Conv2D) (None, 15, 15, 512) 66048 activation_14[0][0] __________________________________________________________________________________________________ bn_3_identity_1_c (BatchNormali (None, 15, 15, 512) 2048 res_3_identity_1_c[0][0] __________________________________________________________________________________________________ add_4 (Add) (None, 15, 15, 512) 0 bn_3_identity_1_c[0][0] activation_12[0][0] __________________________________________________________________________________________________ activation_15 (Activation) (None, 15, 15, 512) 0 add_4[0][0] __________________________________________________________________________________________________ res_3_identity_2_a (Conv2D) (None, 15, 15, 128) 65664 activation_15[0][0] __________________________________________________________________________________________________ bn_3_identity_2_a (BatchNormali (None, 15, 15, 128) 512 res_3_identity_2_a[0][0] __________________________________________________________________________________________________ activation_16 (Activation) (None, 15, 15, 128) 0 bn_3_identity_2_a[0][0] __________________________________________________________________________________________________ res_3_identity_2_b (Conv2D) (None, 15, 15, 128) 147584 activation_16[0][0] __________________________________________________________________________________________________ bn_3_identity_2_b (BatchNormali (None, 15, 15, 128) 512 res_3_identity_2_b[0][0] __________________________________________________________________________________________________ activation_17 (Activation) (None, 15, 15, 128) 0 bn_3_identity_2_b[0][0] __________________________________________________________________________________________________ res_3_identity_2_c (Conv2D) (None, 15, 15, 512) 66048 activation_17[0][0] __________________________________________________________________________________________________ bn_3_identity_2_c (BatchNormali (None, 15, 15, 512) 2048 res_3_identity_2_c[0][0] __________________________________________________________________________________________________ add_5 (Add) (None, 15, 15, 512) 0 bn_3_identity_2_c[0][0] activation_15[0][0] __________________________________________________________________________________________________ activation_18 (Activation) (None, 15, 15, 512) 0 add_5[0][0] __________________________________________________________________________________________________ res_4_conv_a (Conv2D) (None, 15, 15, 256) 131328 activation_18[0][0] __________________________________________________________________________________________________ max_pooling2d_5 (MaxPooling2D) (None, 7, 7, 256) 0 res_4_conv_a[0][0] __________________________________________________________________________________________________ bn_4_conv_a (BatchNormalization (None, 7, 7, 256) 1024 max_pooling2d_5[0][0] __________________________________________________________________________________________________ activation_19 (Activation) (None, 7, 7, 256) 0 bn_4_conv_a[0][0] __________________________________________________________________________________________________ res_4_conv_b (Conv2D) (None, 7, 7, 256) 590080 activation_19[0][0] __________________________________________________________________________________________________ bn_4_conv_b (BatchNormalization (None, 7, 7, 256) 1024 res_4_conv_b[0][0] __________________________________________________________________________________________________ activation_20 (Activation) (None, 7, 7, 256) 0 bn_4_conv_b[0][0] __________________________________________________________________________________________________ res_4_conv_copy (Conv2D) (None, 15, 15, 1024) 525312 activation_18[0][0] __________________________________________________________________________________________________ res_4_conv_c (Conv2D) (None, 7, 7, 1024) 263168 activation_20[0][0] __________________________________________________________________________________________________ max_pooling2d_6 (MaxPooling2D) (None, 7, 7, 1024) 0 res_4_conv_copy[0][0] __________________________________________________________________________________________________ bn_4_conv_c (BatchNormalization (None, 7, 7, 1024) 4096 res_4_conv_c[0][0] __________________________________________________________________________________________________ bn_4_conv_copy (BatchNormalizat (None, 7, 7, 1024) 4096 max_pooling2d_6[0][0] __________________________________________________________________________________________________ add_6 (Add) (None, 7, 7, 1024) 0 bn_4_conv_c[0][0] bn_4_conv_copy[0][0] __________________________________________________________________________________________________ activation_21 (Activation) (None, 7, 7, 1024) 0 add_6[0][0] __________________________________________________________________________________________________ res_4_identity_1_a (Conv2D) (None, 7, 7, 256) 262400 activation_21[0][0] __________________________________________________________________________________________________ bn_4_identity_1_a (BatchNormali (None, 7, 7, 256) 1024 res_4_identity_1_a[0][0] __________________________________________________________________________________________________ activation_22 (Activation) (None, 7, 7, 256) 0 bn_4_identity_1_a[0][0] __________________________________________________________________________________________________ res_4_identity_1_b (Conv2D) (None, 7, 7, 256) 590080 activation_22[0][0] __________________________________________________________________________________________________ bn_4_identity_1_b (BatchNormali (None, 7, 7, 256) 1024 res_4_identity_1_b[0][0] __________________________________________________________________________________________________ activation_23 (Activation) (None, 7, 7, 256) 0 bn_4_identity_1_b[0][0] __________________________________________________________________________________________________ res_4_identity_1_c (Conv2D) (None, 7, 7, 1024) 263168 activation_23[0][0] __________________________________________________________________________________________________ bn_4_identity_1_c (BatchNormali (None, 7, 7, 1024) 4096 res_4_identity_1_c[0][0] __________________________________________________________________________________________________ add_7 (Add) (None, 7, 7, 1024) 0 bn_4_identity_1_c[0][0] activation_21[0][0] __________________________________________________________________________________________________ activation_24 (Activation) (None, 7, 7, 1024) 0 add_7[0][0] __________________________________________________________________________________________________ res_4_identity_2_a (Conv2D) (None, 7, 7, 256) 262400 activation_24[0][0] __________________________________________________________________________________________________ bn_4_identity_2_a (BatchNormali (None, 7, 7, 256) 1024 res_4_identity_2_a[0][0] __________________________________________________________________________________________________ activation_25 (Activation) (None, 7, 7, 256) 0 bn_4_identity_2_a[0][0] __________________________________________________________________________________________________ res_4_identity_2_b (Conv2D) (None, 7, 7, 256) 590080 activation_25[0][0] __________________________________________________________________________________________________ bn_4_identity_2_b (BatchNormali (None, 7, 7, 256) 1024 res_4_identity_2_b[0][0] __________________________________________________________________________________________________ activation_26 (Activation) (None, 7, 7, 256) 0 bn_4_identity_2_b[0][0] __________________________________________________________________________________________________ res_4_identity_2_c (Conv2D) (None, 7, 7, 1024) 263168 activation_26[0][0] __________________________________________________________________________________________________ bn_4_identity_2_c (BatchNormali (None, 7, 7, 1024) 4096 res_4_identity_2_c[0][0] __________________________________________________________________________________________________ add_8 (Add) (None, 7, 7, 1024) 0 bn_4_identity_2_c[0][0] activation_24[0][0] __________________________________________________________________________________________________ activation_27 (Activation) (None, 7, 7, 1024) 0 add_8[0][0] __________________________________________________________________________________________________ res_5_conv_a (Conv2D) (None, 7, 7, 512) 524800 activation_27[0][0] __________________________________________________________________________________________________ max_pooling2d_7 (MaxPooling2D) (None, 3, 3, 512) 0 res_5_conv_a[0][0] __________________________________________________________________________________________________ bn_5_conv_a (BatchNormalization (None, 3, 3, 512) 2048 max_pooling2d_7[0][0] __________________________________________________________________________________________________ activation_28 (Activation) (None, 3, 3, 512) 0 bn_5_conv_a[0][0] __________________________________________________________________________________________________ res_5_conv_b (Conv2D) (None, 3, 3, 512) 2359808 activation_28[0][0] __________________________________________________________________________________________________ bn_5_conv_b (BatchNormalization (None, 3, 3, 512) 2048 res_5_conv_b[0][0] __________________________________________________________________________________________________ activation_29 (Activation) (None, 3, 3, 512) 0 bn_5_conv_b[0][0] __________________________________________________________________________________________________ res_5_conv_copy (Conv2D) (None, 7, 7, 2048) 2099200 activation_27[0][0] __________________________________________________________________________________________________ res_5_conv_c (Conv2D) (None, 3, 3, 2048) 1050624 activation_29[0][0] __________________________________________________________________________________________________ max_pooling2d_8 (MaxPooling2D) (None, 3, 3, 2048) 0 res_5_conv_copy[0][0] __________________________________________________________________________________________________ bn_5_conv_c (BatchNormalization (None, 3, 3, 2048) 8192 res_5_conv_c[0][0] __________________________________________________________________________________________________ bn_5_conv_copy (BatchNormalizat (None, 3, 3, 2048) 8192 max_pooling2d_8[0][0] __________________________________________________________________________________________________ add_9 (Add) (None, 3, 3, 2048) 0 bn_5_conv_c[0][0] bn_5_conv_copy[0][0] __________________________________________________________________________________________________ activation_30 (Activation) (None, 3, 3, 2048) 0 add_9[0][0] __________________________________________________________________________________________________ res_5_identity_1_a (Conv2D) (None, 3, 3, 512) 1049088 activation_30[0][0] __________________________________________________________________________________________________ bn_5_identity_1_a (BatchNormali (None, 3, 3, 512) 2048 res_5_identity_1_a[0][0] __________________________________________________________________________________________________ activation_31 (Activation) (None, 3, 3, 512) 0 bn_5_identity_1_a[0][0] __________________________________________________________________________________________________ res_5_identity_1_b (Conv2D) (None, 3, 3, 512) 2359808 activation_31[0][0] __________________________________________________________________________________________________ bn_5_identity_1_b (BatchNormali (None, 3, 3, 512) 2048 res_5_identity_1_b[0][0] __________________________________________________________________________________________________ activation_32 (Activation) (None, 3, 3, 512) 0 bn_5_identity_1_b[0][0] __________________________________________________________________________________________________ res_5_identity_1_c (Conv2D) (None, 3, 3, 2048) 1050624 activation_32[0][0] __________________________________________________________________________________________________ bn_5_identity_1_c (BatchNormali (None, 3, 3, 2048) 8192 res_5_identity_1_c[0][0] __________________________________________________________________________________________________ add_10 (Add) (None, 3, 3, 2048) 0 bn_5_identity_1_c[0][0] activation_30[0][0] __________________________________________________________________________________________________ activation_33 (Activation) (None, 3, 3, 2048) 0 add_10[0][0] __________________________________________________________________________________________________ res_5_identity_2_a (Conv2D) (None, 3, 3, 512) 1049088 activation_33[0][0] __________________________________________________________________________________________________ bn_5_identity_2_a (BatchNormali (None, 3, 3, 512) 2048 res_5_identity_2_a[0][0] __________________________________________________________________________________________________ activation_34 (Activation) (None, 3, 3, 512) 0 bn_5_identity_2_a[0][0] __________________________________________________________________________________________________ res_5_identity_2_b (Conv2D) (None, 3, 3, 512) 2359808 activation_34[0][0] __________________________________________________________________________________________________ bn_5_identity_2_b (BatchNormali (None, 3, 3, 512) 2048 res_5_identity_2_b[0][0] __________________________________________________________________________________________________ activation_35 (Activation) (None, 3, 3, 512) 0 bn_5_identity_2_b[0][0] __________________________________________________________________________________________________ res_5_identity_2_c (Conv2D) (None, 3, 3, 2048) 1050624 activation_35[0][0] __________________________________________________________________________________________________ bn_5_identity_2_c (BatchNormali (None, 3, 3, 2048) 8192 res_5_identity_2_c[0][0] __________________________________________________________________________________________________ add_11 (Add) (None, 3, 3, 2048) 0 bn_5_identity_2_c[0][0] activation_33[0][0] __________________________________________________________________________________________________ activation_36 (Activation) (None, 3, 3, 2048) 0 add_11[0][0] __________________________________________________________________________________________________ Averagea_Pooling (AveragePoolin (None, 1, 1, 2048) 0 activation_36[0][0] __________________________________________________________________________________________________ flatten (Flatten) (None, 2048) 0 Averagea_Pooling[0][0] __________________________________________________________________________________________________ dropout (Dropout) (None, 2048) 0 flatten[0][0] __________________________________________________________________________________________________ Dense_final (Dense) (None, 6) 12294 dropout[0][0] ================================================================================================== Total params: 19,952,262 Trainable params: 19,909,894 Non-trainable params: 42,368 __________________________________________________________________________________________________ . Compile model . model.compile( optimizer = &quot;adam&quot;, loss = &quot;categorical_crossentropy&quo
…
me&quot;,activation=&quot;relu&quot;,kernel_regularizer=tf.keras.regularizers.L2(0.01))(embed) x = layers.GlobalMaxPool1D()(x) x = layers.Dropout(0.2)(x) outputs = layers.Dense(num_classes,activation=&quot;softmax&quot;)(x) model = tf.keras.Model(inputs,outputs) model.summary() . Model: &#34;model&#34; _________________________________________________________________ Layer (type) Output Shape Param # ================================================================= input_1 (InputLayer) [(None, 1)] 0 _________________________________________________________________ text_vectorization (TextVect (None, 55) 0 _________________________________________________________________ embedding (Embedding) (None, 55, 128) 8299648 _________________________________________________________________ conv1d (Conv1D) (None, 55, 64) 41024 _________________________________________________________________ global_max_pooling1d (Global (None, 64) 0 _________________________________________________________________ dropout (Dropout) (None, 64) 0 _________________________________________________________________ dense (Dense) (None, 5) 325 ================================================================= Total params: 8,340,997 Trainable params: 8,340,997 Non-trainable params: 0 _________________________________________________________________ . len(train_dataset) . 5627 . model.compile(optimizer=&#39;Adam&#39;, loss=&quot;categorical_crossentropy&quot;, metrics=[&quot;accuracy&quot;]) . model_1_history = model.fit(train_dataset, s
…
keras.Model(inputs=inputs, outputs=outputs, name=&quot;model_3_conv1D_char_embedding&quot;) # Compile model model_3.compile(loss=&quot;categorical_crossentropy&quot;, optimizer=tf.keras.optimizers.Adam(), metrics=[&quot;accuracy&quot;]) model_3.summary() . Model: &#34;model_3_conv1D_char_embedding&#34; _________________________________________________________________ Layer (type) Output Shape Param # ================================================================= input_3 (InputLayer) [(None, 1)] 0 _________________________________________________________________ char_vectorizer (TextVectori (None, 290) 0 _________________________________________________________________ char_embed (Embedding) (None, 290, 25) 1750 _________________________________________________________________ conv1d_1 (Conv1D) (None, 290, 64) 8064 _________________________________________________________________ global_max_pooling1d_1 (Glob (None, 64) 0 _________________________________________________________________ dense_3 (Dense) (None, 5) 325 ================================================================= Total params: 10,139 Trainable params: 10,139 Non-trainable params: 0 _________________________________________________________________ . model_3_history = model_3.fit(train_char_dataset, steps_per_epoch=int(0.1 * len(train_char_dataset)), epochs=10, validation_data=val_char_dataset, validation_steps=int(0.1 * len(val_char_dataset)
…
odel: &#34;model_4_token_and_char_embeddings&#34; __________________________________________________________________________________________________ Layer (type) Output Shape Param # Connected to ================================================================================================== char_input (InputLayer) [(None, 1)] 0 __________________________________________________________________________________________________ token_input (InputLayer) [(None,)] 0 __________________________________________________________________________________________________ char_vectorizer (TextVectorizat (None, 290) 0 char_input[0][0] __________________________________________________________________________________________________ universal_sentence_encoder (Ker (None, 512) 256797824 token_input[0][0] __________________________________________________________________________________________________ char_embed (Embedding) (None, 290, 25) 1750 char_vectorizer[1][0] __________________________________________________________________________________________________ dense_4 (Dense) (None, 128) 65664 universal_sentence_encoder[1][0] __________________________________________________________________________________________________ bidirectional (Bidirectional) (None, 50) 10200 char_embed[1][0] __________________________________________________________________________________________________ token_char_hybrid (Concatenate) (None, 178) 0 dense_4[0][0] bidirectional[0][0] __________________________________________________________________________________________________ dropout_1 (Dropout) (None, 178) 0 token_char_hybrid[0][0] __________________________________________________________________________________________________ dense_5 (Dense) (None, 256) 45824 dropout_1[0][0] __________________________________________________________________________________________________ dropout_2 (Dropout) (None, 256) 0 dense_5[0][0] __________________________________________________________________________________________________ dense_6 (Dense) (None, 5) 1285 dropout_2[0][0] ================================================================================================== Total params: 256,922,547 Trainable params: 124,723 Non-trainable params: 256,797,824 __________________________________________________________________________________________________ . Visualize the Hybrid Model . tf.keras.utils.plot_model( model_4, to_file=&#39;model.png&#39;, sho
…
) . model_5.summary() . Model: &#34;model_8&#34; __________________________________________________________________________________________________ Layer (type) Output Shape Param # Connected to ================================================================================================== char_input (InputLayer) [(None, 1)] 0 __________________________________________________________________________________________________ token_inputs (InputLayer) [(None,)] 0 __________________________________________________________________________________________________ char_vectorizer (TextVectorizat (None, 290) 0 char_input[0][0] __________________________________________________________________________________________________ universal_sentence_encoder (Ker (None, 512) 256797824 token_inputs[0][0] __________________________________________________________________________________________________ char_embed (Embedding) (None, 290, 25) 1750 char_vectorizer[2][0] __________________________________________________________________________________________________ dense_7 (Dense) (None, 128) 65664 universal_sentence_encoder[2][0] __________________________________________________________________________________________________ bidirectional_1 (Bidirectional) (None, 50) 10200 char_embed[2][0] __________________________________________________________________________________________________ token_char_hybrid_embedding (Co (None, 178) 0 dense_7[0][0] bidirectional_1[0][0] __________________________________________________________________________________________________ line_number_input (InputLayer) [(None, 15)] 0 __________________________________________________________________________________________________ total_lines_input (InputLayer) [(None, 20)] 0 __________________________________________________________________________________________________ dense_10 (Dense) (None, 256) 45824 token_char_hybrid_embedding[0][0] __________________________________________________________________________________________________ dense_8 (Dense) (None, 32) 512 line_number_input[0][0] __________________________________________________________________________________________________ dense_9 (Dense) (None, 32) 672 total_lines_input[0][0] __________________________________________________________________________________________________ dropout_3 (Dropout) (None, 256) 0 dense_10[0][0] __________________________________________________________________________________________________ token_char_positional_embedding (None, 320) 0 dense_8[0][0] dense_9[0][0] dropout_3[0][0] __________________________________________________________________________________________________ output_layer (Dense) (None, 5) 1605 token_char_positional_embedding[0 ================================================================================================== Total params: 256,924,051 Trainable params: 126,227 Non-trainable params: 256,797,824 __________________________________________________________________________________________________ . from tensorflow.keras.utils import plot_model plot_model(model_5) . model_5.com
…
